…
'/content/drive/MyDrive/SALM_4/datasets/GardensPointWalking/', output_path='checkpoints/', model_name='gp_vgg16_lstm', cnn_arch='vgg16', pretrained=True, val_set='day_right', ngpus=1, workers=4, epochs=100, batch_size=16, lr=0.001, load=False, nimgs=200, seq_len=10, nclasses=190, img_size=224)
=> Loading pre-trained model 'vgg16'
Downloading: "https://download.pytorch.org/models/vgg16-397923af.pth" to /root/.cache/torch/hub/checkpoints/vgg16-397923af.pth
100% 528M/528M [00:04<00:00, 136MB/s]
DataParallel(
  (module): DeepSeqSLAM(
    (cnn): VGG(
      (features): Sequential(
        (0): Conv2d(3, 64, kernel_size=(3, 3), stride=(1, 1), padding=(1, 1))
        (1): ReLU(inplace=True)
        (2): Conv2d(64, 64, kernel_size=(3, 3), stride=(1, 1), padding=(1, 1))
        (3): ReLU(inplace=True)
        (4): MaxPool2d(kernel_size=2, stride=2, padding=0, dilation=1, ceil_mode=False)
        (5): Conv2d(64, 128, kernel_size=(3, 3), stride=(1, 1), padding=(1, 1))
        (6): ReLU(inplace=True)
        (7): Conv2d(128, 128, kernel_size=(3, 3), stride=(1, 1), padding=(1, 1))
        (8): ReLU(inplace=True)
        (9): MaxPool2d(kernel_size=2, stride=2, padding=0, dilation=1, ceil_mode=False)
        (10): Conv2d(128, 256, kernel_size=(3, 3), stride=(1, 1), padding=(1, 1))
        (11): ReLU(inplace=True)
        (12): Conv2d(256, 256, kernel_size=(3, 3), stride=(1, 1), padding=(1, 1))
        (13): ReLU(inplace=True)
        (14): Conv2d(256, 256, kernel_size=(3, 3), stride=(1, 1), padding=(1, 1))
        (15): ReLU(inplace=True)
        (16): MaxPool2d(kernel_size=2, stride=2, padding=0, dilation=1, ceil_mode=False)
        (17): Conv2d(256, 512, kernel_size=(3, 3), stride=(1, 1), padding=(1, 1))
        (18): ReLU(inplace=True)
        (19): Conv2d(512, 512, kernel_size=(3, 3), stride=(1, 1), padding=(1, 1))
        (20): ReLU(inplace=True)
        (21): Conv2d(512, 512, kernel_size=(3, 3), stride=(1, 1), padding=(1, 1))
        (22): ReLU(inplace=True)
        (23): MaxPool2d(kernel_size=2, stride=2, padding=0, dilation=1, ceil_mode=False)
        (24): Conv2d(512, 512, kernel_size=(3, 3), stride=(1, 1), padding=(1, 1))
        (25): ReLU(inplace=True)
        (26): Conv2d(512, 512, kernel_size=(3, 3), stride=(1, 1), padding=(1, 1))
        (27): ReLU(inplace=True)
        (28): Conv2d(512, 512, kernel_size=(3, 3), stride=(1, 1), padding=(1, 1))
        (29): ReLU(inplace=True)
        (30): MaxPool2d(kernel_size=2, stride=2, padding=0, dilation=1, ceil_mode=False)
      )
      (avgpool): AdaptiveAvgPool2d(output_size=(7, 7))
      (classifier): Sequential(
        (0): Linear(in_features=25088, out_features=4096, bias=True)
        (1): ReLU(inplace=True)
        (2): Dropout(p=0.5, inplace=False)
        (3): Linear(in_features=4096, out_features=4096, bias=True)
        (4): ReLU(inplace=True)
        (5): Dropout(p=0.5, inplace=False)
        (6): Identity()
      )
    )
    (lstm): LSTM(4098, 512, batch_first=True)
    (mlp): Linear(in_features=512, out_features=190, bias=True)
  )
)
epoch:   0% 0/101 [00:00<?, ?it/s]
  0% 0/12 [00:00<?, ?it/s]
Epoch [0/101]:   0% 0/12 [00:36<?, ?it/s]
Epoch [0/101]:   0% 0/12 [00:36<?, ?it/s, loss=5.21, lr=0.001, top1=0, top5=0.0625]
Epoch [0/101]:   8% 1/12 [00:36<06:40, 36.41s/it, loss=5.21, lr=0.001, top1=0, top5=0.0625]
Epoch [0/101]:   8% 1/12 [00:37<06:40, 36.41s/it, loss=5.21, lr=0.001, top1=0, top5=0.0625]
…
